pretrained_weights/fc_weights.pth (torch, 4083 bytes, 1 tensors)

weight f4 [1, 768]
-0.31957924 -0.11331087 -0.17839013 0.0396921 0.17239884 0.3349714 0.05248 0.08556047
-0.044053838 0.12797247 0.1595337 -0.078258075 -0.030576067 0.08422515 -5.3246007e-05 -0.03746786
-0.1598212 0.15221328 0.28699195 0.044560887 -0.10431055 0.14443189 0.16977109 -0.06032249
-0.06169859 0.18252689 0.054335743 -0.4591917 0.11759035 0.19299187 0.11036818 -0.3708105
0.18123168 0.019741904 0.085164286 -0.5499195 0.16425653 -0.23692745 0.011832601 0.20527968
0.22665063 0.22268917 -0.25739953 -0.06378955 0.022186954 0.026534706 0.07561555 0.28675655
0.18950897 0.25511608 -0.05709823 -0.22209345 -0.17636034 -0.27630937 0.26376292 0.21426776
0.21263114 -0.16459505 0.24452572 -0.2238168 0.1279988 -0.13562195 -0.12267956 0.062246222
-0.120818205 -0.014659481 0.20919399 0.09063692 -0.0005088551 -0.077196136 0.20507224 -0.1468536
-0.23248051 0.26292002 0.47163352 -0.25870574 0.28492144 -0.015533896 -0.08837172 0.42478308
0.086003006 0.028157892 -0.20712349 0.31109053 -0.012450469 0.26645172 -0.5165027 0.41918686
-0.15752776 0.004874723 0.41830972 0.03607066 -0.10759255 0.105126835 0.04171038 -0.073964514
-0.23836498 -0.4584392 -0.083086036 -0.41136098 0.20599844 -0.27263194 0.2699893 0.045808766
-0.24378195 -0.01984766 0.022862924 -0.22393838 0.16120715 -0.3352799 -0.022677772 0.034370057
0.04204466 -0.018309155 0.015157708 -0.038264114 -0.07467334 0.22368252 0.34374592 -0.19288109
-0.40575027 0.014737284 -0.1827728 0.33699527 -0.15591909 0.15004636 -0.37737924 0.33586332
0.28115556 0.24808642 -0.4215736 -0.060376827 -0.20483476 0.23873828 0.28467587 0.31238016
0.11831421 -0.14895403 -0.092846915 -0.24308921 0.069874026 -0.29701865 0.06393336 0.15886419
-0.15479937 -0.061393265 -0.50517863 -0.23996429 -0.15940514 -0.02353743 -0.07033157 -0.08426998
-0.33346584 0.42772833 0.25765175 -0.18042243 -0.25474265 0.1594829 -0.009295643 -0.12807015
0.12354371 0.34316465 -0.07903117 -0.0003839782 -0.17754878 -0.20829175 0.1668175 0.032871567
-0.19694652 0.5136603 -0.0037783426 0.34208196 -0.21096793 -0.14108935 0.026636058 -0.4496409
-0.091782585 0.30739853 0.18420029 0.43728715 -0.14210019 -0.15468162 -0.38182527 0.3297305
0.28439546 0.07895 -0.10190234 -0.30153337 -0.0019286055 -0.38742942 0.3298644 -0.06724546
0.32397372 -0.19322106 0.34445748 0.71439445 0.37375468 0.07147783 0.028894953 -0.42674324
0.040738385 -0.44947898 -0.24929123 -0.050969467 -0.26257536 0.2587041 -0.24063131 -0.031342953
0.018458504 -0.29541743 0.07952826 -0.04299672 0.036777366 -0.28940845 0.034452125 0.013867431
0.20549539 -0.37427008 -0.112475835 -0.27328026 0.20333266 0.4291466 -0.2472154 0.23225667
0.1421163 -0.15517117 0.26760608 0.1896338 0.14871527 -0.16429037 -0.38046768 -0.11708406
-0.17422229 0.12533078 -0.0064894482 -0.29982993 0.13637452 0.11001431 0.09092128 -0.04684468
-0.031800102 0.15242912 -0.08869983 0.017239073 -0.36154464 -0.18715642 0.3632124 -0.06340892
0.20456013 0.24002652 0.07200825 -0.18939637 -0.08794136 -0.10140523 -0.04341292 0.026803873
00000000: e49f a3be 880f e8bd e7ab 36be 2f94 223d
00000010: 5289 303e 5f81 ab3e 45f5 563d 543a af3d
00000020: cc71 34bd 370b 033e cd5c 233e c545 a0bd
00000030: a97a fabc 3c7e ac3d 7754 5fb8 e677 19bd
00000040: 2ba8 23be ccdd 1b3e 9cf0 923e 7a85 363d
00000050: c5a0 d5bd f4e5 133e 79d8 2d3e b714 77bd
00000060: a9b7 7cbd 54e8 3a3e 288f 5e3d 2d1b ebbe
00000070: 36d3 f03d a99f 453e b608 e23d e0da bdbe
00000080: cc94 393e c6b9 a13c 9d6a ae3d 86c7 0cbf
00000090: dd32 283e 1c9d 72be 87dd 413c d634 523e
000000a0: 1a17 683e a108 643e dfc9 83be 18a4 82bd
000000b0: 6ac1 b53c 505f d93c 53dc 9a3d c1d1 923e
000000c0: a40e 423e 939e 823e d5df 69bd 776c 63be
000000d0: ce97 34be 6c78 8dbe ef0b 873e 0269 5b3e
000000e0: fabb 593e 9b8b 28be f364 7a3e 3b30 65be
000000f0: 1e12 033e 7be0 0abe 6c3f fbbd e5f5 7e3d
00000100: 896f f7bd 522e 70bc f336 563e d99f b93d
00000110: b064 05ba 0219 9ebd 75fe 513e ca60 16be
00000120: 5f0f 6ebe 749d 863e f379 f13e 1475 84be
00000130: 39e1 913e e281 7ebc 3bfc b4bd 2b7d d93e
00000140: 5822 b03d 61ab e63c 2e18 54be 4247 9f3e
00000150: 0dfd 4bbc 5c6c 883e 8539 04bf a99f d63e
00000160: f54e 21be 24bc 9f3b b12c d63e d4be 133d
00000170: 7c59 dcbd bd4c d73d 81d8 2a3d b57a 97bd
00000180: f315 74be 8bb8 eabe 0329 aabd e89d d2be
00000190: 41f1 523e 6a96 8bbe 0a3c 8a3e f9a1 3b3d
000001a0: faa1 79be 8f97 a2bc 074b bb3c 1a50 65be
000001b0: 7d13 253e cfa9 abbe bcc6 b9bc 9ec7 0c3d
000001c0: 0537 2c3d 15fd 95bc 0958 783c d5ba 1cbd
000001d0: 56ee 98bd 080d 653e 77ff af3e 9f82 45be
000001e0: 80be cfbe a674 713c cb28 3bbe a58a ac3e
000001f0: 41a9 1fbe c1a5 193e da37 c1be 47f6 ab3e
00000200: 9ff3 8f3e 5e0a 7e3e 7fd8 d7be b14d 77bd
00000210: 34c0 51be cf77 743e 09c1 913e 4bf0 9f3e
00000220: b84e f23d 6887 18be 8626 bebd 61ec 78be
00000230: 1d1a 8f3d d412 98be 7eef 823d 4bad 223e
00000240: ba83 1ebe 8177 7bbd 6353 01bf 33b9 75be
00000250: 1a3b 23be 92d1 c0bc 000a 90bd bd95 acbd
00000260: 09bc aabe 35ff da3e eeea 833e a8c0 38be
00000270: a16d 82be 7c4f 233e c14c 18bc d224 03be
00000280: 7c04 fd3d 47b3 af3e 18db a1bd ae50 c9b9
00000290: 59cf 35be 6f4a 55be 35d2 2a3e 56a4 063d
000002a0: 59ac 49be 3e7f 033f 129e 77bb 5e25 af3e
000002b0: fa07 58be ba79 10be dd33 da3c 5537 e6be
000002c0: 82f8 bbbd 5763 9d3e 009f 3c3e 1ae4 df3e
000002d0: b682 11be dc64 1ebe 9a7e c3be 70d2 a83e
000002e0: 489c 913e 8ab0 a13d 2db2 d0bd 9562 9abe
000002f0: 43c9 fcba 265d c6be fde3 a83e fdb7 89bd
00000300: e2df a53e bedb 45be bb5c b03e 8ee2 363f
00000310: c65c bf3e f862 923d 1cb5 ec3c 177e dabe
00000320: 4bdd 263d 1c22 e6be 3346 7fbe 5cc5 50bd
00000330: 4770 86be dd74 843e 0e68 76be 7861 00bd
00000340: 4a36 973c f440 97be b6df a23d 541d 30bd
00000350: dda3 163d 582d 94be ac1d 0d3d 3934 633c
00000360: 626d 523e 54a0 bfbe bb59 e6bd 64eb 8bbe
00000370: 7036 503e 1ab9 db3e 0926 7dbe b1d4 6d3e
00000380: ef86 113e 31e5 1ebe aa03 893e 5d2f 423e
00000390: d148 183e bc3b 28be a9cc c2be c5c9 efbd
000003a0: 5467 32be b656 003e 70a5 d4bb 4f83 99be
000003b0: c3a5 0b3e 2f4f e13d f034 ba3d 35e0 3fbd
000003c0: d340 02bd 6116 1c3e 42a8 b5bd f538 8d3c
000003d0: 611c b9be efa5 3fbe faf6 b93e 89dc 81bd
000003e0: 3678 513e 83c9 753e 1079 933d 1ff1 41be
000003f0: 9a1a b4bd 8cad cfbd bfd1 31bd cc93 db3c
